…
    "model.add(Dropout(0.2))\n",
    "model.add(Dense(128, activation='relu'))\n",
    "#model.add(Dropout(0.3))\n",
    "model.add(Dense(3, activation = 'softmax'))"
   ]
  },
  {
   "cell_type": "code",
   "execution_count": null,
   "metadata": {},
   "outputs": [
    {
     "name": "stdout",
     "output_type": "stream",
     "text": [
      "_________________________________________________________________\n",
      "Layer (type)                 Output Shape              Param #   \n",
      "=================================================================\n",
      "conv2d_1 (Conv2D)            (None, 948, 948, 32)      320       \n",
      "_________________________________________________________________\n",
      "max_pooling2d_1 (MaxPooling2 (None, 474, 474, 32)      0         \n",
      "_________________________________________________________________\n",
      "batch_normalization_1 (Batch (None, 474, 474, 32)      128       \n",
      "_________________________________________________________________\n",
      "conv2d_2 (Conv2D)            (None, 472, 472, 64)      18496     \n",
      "_________________________________________________________________\n",
      "max_pooling2d_2 (MaxPooling2 (None, 236, 236, 64)      0         \n",
      "_________________________________________________________________\n",
      "batch_normalization_2 (Batch (None, 236, 236, 64)      256       \n",
      "_________________________________________________________________\n",
      "conv2d_3 (Conv2D)            (None, 234, 234, 96)      55392     \n",
      "_________________________________________________________________\n",
      "max_pooling2d_3 (MaxPooling2 (None, 117, 117, 96)      0         \n",
      "_________________________________________________________________\n",
      "batch_normalization_3 (Batch (None, 117, 117, 96)      384       \n",
      "_________________________________________________________________\n",
      "conv2d_4 (Conv2D)            (None, 115, 115, 96)      83040     \n",
      "_________________________________________________________________\n",
      "max_pooling2d_4 (MaxPooling2 (None, 57, 57, 96)        0         \n",
      "_________________________________________________________________\n",
      "batch_normalization_4 (Batch (None, 57, 57, 96)        384       \n",
      "_________________________________________________________________\n",
      "conv2d_5 (Conv2D)            (None, 55, 55, 96)        83040     \n",
      "_________________________________________________________________\n",
      "max_pooling2d_5 (MaxPooling2 (None, 27, 27, 96)        0         \n",
      "_________________________________________________________________\n",
      "batch_normalization_5 (Batch (None, 27, 27, 96)        384       \n",
      "_________________________________________________________________\n",
      "conv2d_6 (Conv2D)            (None, 25, 25, 96)        83040     \n",
      "_________________________________________________________________\n",
      "max_pooling2d_6 (MaxPooling2 (None, 12, 12, 96)        0         \n",
      "_________________________________________________________________\n",
      "batch_normalization_6 (Batch (None, 12, 12, 96)        384       \n",
      "_________________________________________________________________\n",
      "conv2d_7 (Conv2D)            (None, 10, 10, 96)        83040     \n",
      "_________________________________________________________________\n",
      "max_pooling2d_7 (MaxPooling2 (None, 5, 5, 96)          0         \n",
      "_________________________________________________________________\n",
      "batch_normalization_7 (Batch (None, 5, 5, 96)          384       \n",
      "_________________________________________________________________\n",
      "conv2d_8 (Conv2D)            (None, 3, 3, 64)          55360     \n",
      "_________________________________________________________________\n",
      "max_pooling2d_8 (MaxPooling2 (None, 1, 1, 64)          0         \n",
      "_________________________________________________________________\n",
      "batch_normalization_8 (Batch (None, 1, 1, 64)          256       \n",
      "_________________________________________________________________\n",
      "dropout_1 (Dropout)          (None, 1, 1, 64)          0         \n",
      "_________________________________________________________________\n",
      "flatten_1 (Flatten)          (None, 64)                0         \n",
      "_________________________________________________________________\n",
      "dense_1 (Dense)              (None, 256)               16640     \n",
      "_________________________________________________________________\n",
      "dropout_2 (Dropout)          (None, 256)               0         \n",
      "_________________________________________________________________\n",
      "dense_2 (Dense)              (None, 128)               32896     \n",
      "_________________________________________________________________\n",
      "dense_3 (Dense)              (None, 3)                 387       \n",
      "=================================================================\n",
      "Total params: 514,211\n",
      "Trainable params: 512,931\n",
      "Non-trainable params: 1,280\n",
      "_________________________________________________________________\n"
     ]
    }
   ],
   "source": [
    "model.compile(loss='binary_crossentropy', optimizer='adam', metrics = ['accuracy'])\n",
…
